SNet.pkl (torch, 252607 bytes, 10 tensors)

weight f4 [6, 1, 5, 5]
0	0xbe131252	-0.14362457
1	0x3e498a4b	0.19681661
2	0x3e1f3f20	0.15551424
3	0x3e9b8b29	0.30379608
4	0xbde32d15	-0.11092583
5	0xbe0c52d9	-0.13703479
6	0x3e390126	0.18066844
7	0x3e203140	0.15643787
8	0x3e8e1c88	0.27756143
9	0xbaf2e6a7	-0.0018531875
10	0xbda3b197	-0.07992857
11	0x3e27145b	0.16316359
12	0x3eb86aa6	0.36018866
13	0x3e7b2975	0.24527533
14	0xbde7a29e	-0.11310314
15	0xbd961678	-0.07328504
16	0x3e988307	0.29787466
17	0x3e695505	0.22786339
18	0x3ea6e357	0.32595322
19	0x3d95f3cb	0.073218904
20	0xbd7c8726	-0.061652325
21	0x3e249754	0.16073352
22	0x3e0070e7	0.12543069
23	0x3d1f691c	0.0389186
24	0x3d18406b	0.03717081
25	0xbd306b03	-0.043070804
26	0x3cc03baf	0.02346596
27	0xbe3a5f06	-0.18200311
28	0xbd05b650	-0.03264457
29	0xbe9f0791	-0.3106046
30	0x3ebbfa54	0.36714423
31	0x3ee3e7fc	0.44512928
32	0x3e1c5b4a	0.15269199
33	0xbe8cc4d9	-0.27493933
34	0xbe468a6f	-0.19388746
35	0x3e86acb0	0.26303625
36	0x3e941980	0.28925705
37	0x3eef2245	0.46705833
38	0x3ea82dba	0.32847387
39	0xbdc39a68	-0.09550935
40	0xbecb9cf8	-0.39768195
41	0xbdcb6765	-0.0993183
42	0x3ecaa99f	0.39582536
43	0x3d4d57f6	0.050132714
44	0xbdc1ca7f	-0.09462451
45	0xbec02964	-0.3753158
46	0x3cb0fd79	0.02160524
47	0x3e40a073	0.18811207
48	0x3e78525b	0.24250166
49	0xbdc9ce63	-0.09853818
50	0x3da0062a	0.07813676
51	0xbdcd49dd	-0.10023854
52	0xbe05c252	-0.13062409
53	0x3df45e35	0.11932031
54	0x3d1acff3	0.037795972
55	0x3e1388a9	0.144076
56	0xbd51bf10	-0.051207602
57	0xbccb17f9	-0.024791704
58	0x3dd6a500	0.1048069
59	0x3da18779	0.078871675
60	0xbe12d72d	-0.14339896
61	0x3949439c	0.0001919404
62	0x3e92150e	0.28531688
63	0x3e365d49	0.17809023
64	0xbe9620c4	-0.29321873
65	0x3e898920	0.2686243
66	0x3ec0171f	0.3751764
67	0x3eae6a20	0.34065342
68	0xbda479a9	-0.08031017
69	0xbddc0451	-0.10743011
70	0x3e98b611	0.29826406
71	0xbd2f94cf	-0.042866524
72	0x3e2b7ff6	0.16748032
73	0xbe815386	-0.25259036
74	0xbebd9464	-0.37027276
75	0xbe8f639f	-0.28005692
76	0xbe6a5057	-0.2288221
77	0xbebdc544	-0.37064564
78	0xbe0d3cf9	-0.1379279
79	0xbced844f	-0.028993754
80	0xbdda6e96	-0.10665624
81	0xbdb5ac5f	-0.08870768
82	0xbe2808b8	-0.16409576
83	0x3e5589c1	0.2085333
84	0xbd52ea7b	-0.05149315
85	0x3e664601	0.22487642
86	0x3e01fafa	0.12693396
87	0x3d9011dd	0.07034657
88	0x3ec57fbc	0.38574016
89	0x3e1cfd0a	0.15330902
90	0x3eaa8b2c	0.33309305
91	0xbb5f7163	-0.0034094683
92	0x3d530262	0.051515944
93	0x3e3d4c2e	0.18486091
94	0x3c6f9756	0.014623484
95	0x3e641733	0.22274475
96	0x3c226e63	0.009914014
97	0x3e807459	0.25088766
98	0xbe1aaba7	-0.15104543
99	0xbe61ac06	-0.22038278
100	0x3e8d09bc	0.2754649
101	0x3d95d023	0.073150896
102	0x3ea30ca4	0.31845582
103	0x3ebc54c8	0.36783433
104	0x3e3e9fe2	0.18615678
105	0x3eb40c50	0.35165644
106	0x3eb2e71d	0.3494195
107	0x3e40a9a6	0.18814716
108	0x3dfcf0bb	0.12350603
109	0x3e325882	0.17416576
110	0xbe1d74d0	-0.15376592
111	0x3c6e7859	0.01455506
112	0x3e8de07e	0.27710336
113	0x3d2f1a79	0.042749856
114	0x3d037500	0.032094
115	0xbe3a8b7e	-0.18217275
116	0xbe4d1a3e	-0.20029542
117	0xbee2d759	-0.44304922
118	0xbe834d85	-0.2564508
119	0xbe44db70	-0.19224334
120	0xbed9f6db	-0.42571148
121	0xbefe6bcc	-0.49691617
122	0xbefc055e	-0.49222845
123	0xbea6523b	-0.32484612
124	0xbdac3694	-0.084088475
125	0x3e99ff6a	0.30077678
126	0x3ee696e5	0.45036998
127	0x3eda290a	0.42609435
128	0x3e856c1a	0.26059037
129	0xbde24c13	-0.11049666
130	0x3e1e9d0d	0.15489598
131	0x3d646d00	0.055768013
132	0x3d618939	0.055062506
133	0x3e795ccd	0.24351807
134	0x3db69762	0.08915593
135	0xbd9f137f	-0.077673905
136	0xbd60cdff	-0.054883953
137	0xba6d7098	-0.00090576103
138	0x3e4a40e2	0.19751313
139	0x3dc884de	0.097909674
140	0xbed98677	-0.424854
141	0xbe41de94	-0.18932563
142	0xbe108150	-0.14111829
143	0xbdfa9ef9	-0.12237353
144	0x3e5532d5	0.20820172
145	0xbe9b038a	-0.30276138
146	0xbe483416	-0.19551119
147	0xbc8d6a41	-0.01726258
148	0xbd6c6592	-0.057714052
149	0x3e1a72a1	0.1508279

bias f4 [6]
0	0xbc6ef86b	-0.014585595
1	0xbbc39bd0	-0.005969502
2	0xbcec7edc	-0.028869085
3	0xbcc07b2f	-0.023496239
4	0x3dc9c480	0.098519325
5	0xbb968660	-0.0045936555

weight f4 [16, 6, 5, 5]
0	0x3a642c5d	0.00087041204
1	0x3d2d642a	0.042331852
2	0x3cbfa611	0.023394616
3	0x3c10020c	0.0087895505
4	0x3de8fa73	0.113758944
5	0xbe6e9838	-0.23300254
6	0xbe259245	-0.16169079
7	0xbdfaa0a8	-0.12237674
8	0x3c18a1df	0.009315937
9	0x3e03b8ed	0.12863512
10	0xbea8e8df	-0.32990167
11	0xbe71bc6b	-0.23607032
12	0xbe9edfdc	-0.31030166
13	0xbe6a7ef6	-0.22899994
14	0xbd36032f	-0.04443663
15	0x3d1aea6c	0.03782122
16	0xbdee9635	-0.116497435
17	0xbd3413d4	-0.043964222
18	0xbdc288e0	-0.09498763
19	0xbdb51e69	-0.08843691
20	0x3c8af13b	0.01696073
21	0x3d8c5a0d	0.06853113
22	0x3dc90ef7	0.098173074
23	0x3e192eda	0.14959279
24	0x3c64bfa9	0.013961711
25	0x3cd52aa6	0.026021313
26	0x3e2449a5	0.16043718
27	0x3d4a42b7	0.04938003
28	0x3dd1f976	0.10252659
29	0x3d93a23d	0.07208679
30	0xbe1f3501	-0.15547563
31	0xbdcf3dbc	-0.10119197
32	0x3daf01f9	0.08545298
33	0x3dec7e93	0.115475796
34	0x3e55edb7	0.20891462
35	0xbe6976ce	-0.22799227
36	0xbecb09b9	-0.39655855
37	0xbeb276c8	-0.34856248
38	0xbeaeb71a	-0.3412407
39	0xbdcd87f1	-0.100356944
40	0xbc28de5c	-0.010306921
41	0xbbe02d28	-0.0068413205
42	0xbdc0a784	-0.09406951
43	0xbdf17943	-0.11790707
44	0xbdcc0a1b	-0.09962865
45	0x3e4405f3	0.19142894
46	0x3e4655f2	0.19368723
47	0x3dc706f4	0.09718123
48	0x3dbb53da	0.09146853
49	0x3e02e4c6	0.12782583
50	0xbd1488b7	-0.036263194
51	0xbc9e0dc3	-0.019293671
52	0x3d80d387	0.06290346
53	0xbb0322ea	-0.0020009824
54	0x3de1be47	0.11022621
55	0xbe78308d	-0.2423727
56	0xbe85a438	-0.2610185
57	0xbe2322af	-0.159312
58	0xbdc05def	-0.093929164
59	0x3df1b250	0.118015885
60	0xbcd894cf	-0.026438145
61	0xbe5b9154	-0.21442157
62	0xbe8af8ab	-0.27142844
63	0xbde7e269	-0.11322481
64	0xbda39d20	-0.079889536
65	0xbc2e7230	-0.010647342
66	0xbb083ad4	-0.0020787017
67	0xbd363ff2	-0.044494577
68	0xbd47ace5	-0.04874887
69	0xbd542bd2	-0.051799603
70	0x3d032a58	0.032022804
71	0x3d74d4d8	0.059773296
72	0xbb8584c7	-0.004074666
73	0x3d2e60c8	0.042572767
74	0x3e0d175d	0.13778444
75	0xbd81b9d6	-0.063342735
76	0x3dbd9732	0.09257354
77	0xbccbd2b8	-0.024880752
78	0x3d565432	0.05232639
79	0x3ded38a2	0.115830675
80	0xbe88b803	-0.2670289
81	0xbe72ba9c	-0.23703998
82	0xbdef5a6d	-0.11687169
83	0xbcd8b7e7	-0.026454879
84	0x3d9ea08e	0.07745467
85	0xbd46ee1c	-0.048566923
86	0xbe2e30ac	-0.17010754
87	0xbdd9017a	-0.10595985
88	0xbdb297fa	-0.087203935
89	0xbe40cf1c	-0.18829006
90	0xbd0dfd9f	-0.0346657
91	0xbd0a745f	-0.033802386
92	0x3cdac5ff	0.02670574
93	0x3d7af126	0.061265133
94	0x3cd1a9ba	0.025593627
95	0x3e0edc48	0.13951218
96	0x3e13eec4	0.1444655
97	0x3e1c5c96	0.15269694
98	0x3e0dd8a5	0.13852175
99	0x3df29639	0.11845059
100	0x3dd65ee3	0.10467317
101	0x3d856650	0.06513655
102	0x3bce9742	0.0063046524
103	0xbdf71d3e	-0.120661244
104	0xbdc933a4	-0.09824303
105	0x3e3793a9	0.17927422
106	0x3e75ab1a	0.23991051
107	0x3e17b076	0.14813408
108	0x3e27e086	0.16394243
109	0x3e5d5590	0.21614671
110	0xbe330c0b	-0.17485063
111	0xbacd0dbf	-0.0015644355
112	0x3e204067	0.15649568
113	0x3e683baf	0.22679017
114	0x3e93f8b0	0.2890067
115	0xbe4fa744	-0.2027865
116	0xbe8869e2	-0.26643282
117	0xbeab6f2c	-0.33483255
118	0xbe9c0d92	-0.30479103
119	0xbe057e13	-0.13036375
120	0xbcd5015c	-0.026001625
121	0xbdc90f98	-0.098174274
122	0xbb996cc8	-0.004682157
123	0x3c8ea89b	0.017414382
124	0x3da7fc67	0.08202439
125	0x3dd42361	0.103583105
126	0x3d7f597e	0.062341206
127	0xbd127add	-0.035761703
128	0xbd1ea9af	-0.03873604
129	0xbe086595	-0.1332
130	0x3da642c2	0.08118202
131	0x3cf2406a	0.02957173
132	0x3e24be76	0.1608828
133	0x3dfe8c23	0.12429073
134	0x3e0c7a06	0.13718423
135	0xbe5fac8f	-0.2184317
136	0xbe571c28	-0.21006835
137	0xbdc7f331	-0.09763182
138	0x3d85fc2f	0.06542241
139	0x3dd3fdc0	0.10351133
140	0xbe628a27	-0.22123013
141	0xbe870528	-0.2637112
142	0xbe941039	-0.28918627
143	0xbe8d07d4	-0.27545035
144	0xbe5e77c1	-0.2172537
145	0x3d8a035b	0.06738921
146	0x3d4fb8ed	0.05071347
147	0xbdaef247	-0.085423045
148	0xbe05b6b9	-0.13057984
149	0xbd622b41	-0.05521703
150	0xbd5e3081	-0.054245476
151	0x3dcde0c4	0.10052636
152	0x3cf70b5b	0.030156782
153	0x3e358482	0.17726329
154	0xbcfce43f	-0.030870555
155	0xbcf0b2b4	-0.029382087
156	0x3db72005	0.08941654
157	0x3d9e3416	0.07724778
158	0x3da4e771	0.080519564
159	0xbe418266	-0.188974
160	0x3cdd2a6f	0.026997773
161	0x3e22e953	0.15909319
162	0x3d8fdd13	0.070245884
163	0x3d0a6cc9	0.03379515
164	0xbe62eee3	-0.2216144
165	0x3e25e0bd	0.16199012
166	0x3df4d52c	0.11954722
167	0xbd54d9ca	-0.051965512
168	0x3c7fa2cb	0.015602778
169	0xbc29eef5	-0.010371913
170	0x3dfc977b	0.1233358
171	0xbcb454c9	-0.022013085
172	0xbe327fc9	-0.17431559
173	0xbd88f8c1	-0.06688071
174	0xbd82784d	-0.06370602
175	0xbcd4d6f9	-0.025981413
176	0xbc0b0b54	-0.008486588
177	0x3e15c2b8	0.1462506
178	0x3e2a7dd3	0.1664956
179	0x3b7dc455	0.003872176
180	0x3dbf1641	0.093304165
181	0x3dfdf527	0.12400275
182	0xbbdab32e	-0.006674192
183	0xbd5b85c3	-0.053594362
184	0xbe08847a	-0.13331786
185	0xbd8f8bfa	-0.0700912
186	0x3d1cb80d	0.038261462
187	0xbdaaee36	-0.083462164
188	0x3d7330b5	0.059372623
189	0xbe073bc2	-0.1320639
190	0xbc16649b	-0.00917926
191	0xbd4cbfa5	-0.049987454
192	0xbc4adb02	-0.012381317
193	0x3d9d2e96	0.07674901
194	0x3dfa998c	0.12236318
195	0xbd65f13d	-0.056138266
196	0x3da66239	0.08124203
197	0xbe146766	-0.14492568
198	0xbcb47232	-0.022027109
199	0x3d293440	0.041309595
200	0xbdae47f2	-0.08509816
201	0xbc77219f	-0.0150836995
202	0x3d8803dc	0.06641361
203	0x3d6f4d3c	0.058423266
204	0x3de1aa32	0.1101879
205	0xbe282b46	-0.16422758
206	0x3d450385	0.04809906
207	0x3d9eeb0e	0.07759677
208	0x3dea6663	0.1144531
209	0xbd05462a	-0.032537617
210	0xbde6348d	-0.11240492
211	0x3d27e327	0.040988114
212	0x3d9b703d	0.07589767
213	0xbd086f36	-0.033309184
214	0xbccd82e6	-0.025086831
215	0x3e15d4fc	0.14632028
216	0x3d88e874	0.06684962
217	0xb96c9923	-0.00022563762
218	0xbda03911	-0.078233846
219	0x3d09427f	0.03351068
220	0x3d827717	0.06370371
221	0xbdfd59f0	-0.1237067
222	0xbdbe3538	-0.092874944
223	0xbd9b9546	-0.07596831
224	0xbb9a11fd	-0.0047018514
225	0x3d49b1e4	0.049241915
226	0x3df2184c	0.118210405
227	0x3db02f0b	0.08602723
228	0x3d999622	0.07499339
229	0x3de205e8	0.11036283
230	0xbde8e706	-0.11372189
231	0xbdc25914	-0.094896466
232	0x3d7d00d7	0.06176838
233	0x3c91b1f9	0.01778506
234	0xbbf6ad3c	-0.0075279754
235	0xbd0a0aef	-0.033701833
236	0x3b113fad	0.0022163198
237	0x3d37b23e	0.04484772
238	0xbe3b3fc5	-0.18286045
239	0x3c4df903	0.012571576
240	0x3dc7f472	0.09763421
241	0x3db0dbd9	0.086356826
242	0x3d35d4ca	0.044392385
243	0xbddc3a71	-0.10753334
244	0xbc92ece2	-0.01793522
245	0xbd979bd3	-0.07402768
246	0xbe074bec	-0.13212556
247	0xbe496270	-0.19666457
248	0xbc7b2591	-0.015328781
249	0xbda6df6e	-0.081480846
250	0x3c28606e	0.010276897
251	0xbe283787	-0.16427432
252	0xbe713779	-0.23556317
253	0xbc770907	-0.015077836
254	0x3dc6c226	0.097049996
255	0x3cf3e119	0.02977042

bias f4 [16]
0	0xbd1ec571	-0.038762514
1	0xbd4163da	-0.047214366
2	0x3cb1ee7d	0.021720165
3	0x3d412b7c	0.04716061
4	0x3d8d93a6	0.06912927
5	0xbdcae8dc	-0.09907696
6	0x3db3db82	0.08782102
7	0xbd7a68c1	-0.061135057
8	0x3cedbb88	0.029020086
9	0xbd02a593	-0.031896185
10	0xbcf4800b	-0.029846212
11	0xbd455f11	-0.048186366
12	0x3b62e947	0.0034623907
13	0xbd762a6d	-0.060099054
14	0xbd90882a	-0.07057221
15	0xbc936900	-0.017994404

weight f4 [120, 16, 5, 5]
0	0x3d21ba73	0.039484452
1	0x3d19d514	0.037556723
2	0xbce11869	-0.02747746
3	0xbd67808c	-0.056519076
4	0x3c562f86	0.013072854
5	0xbc3543ef	-0.01106356
6	0xbce10ebf	-0.027472852
7	0xbcfc273d	-0.030780429
8	0xbcfa242d	-0.030534828
9	0x3d40fb38	0.04711458
10	0xbd46b302	-0.04851056
11	0x3c6e5390	0.01454629
12	0xbcf9cb6e	-0.03049251
13	0xbaf2fa17	-0.0018537667
14	0xbd5e46ac	-0.054266617
15	0xbd08f98a	-0.033441104
16	0xbd701f84	-0.058623806
17	0xb92a42bf	-0.00016237328
18	0xbd2a36b2	-0.041556068
19	0xbd8a9333	-0.06766357
20	0x3cc8e0f2	0.024521325
21	0xbcbd5bef	-0.023115126
22	0x3c7e0b6c	0.015505653
23	0x3cf672de	0.03008407
24	0x3b39c747	0.0028347538
25	0xbd2b30ea	-0.041794695
26	0xbd855cbc	-0.06511828
27	0xbc66e9e4	-0.01409385
28	0x3cd71a2f	0.026257602
29	0xbcf577bf	-0.029964326
30	0x3c5e2c72	0.013560401
31	0xbd749571	-0.05971283
32	0x3bc7ae86	0.006093803
33	0xbd099d72	-0.033597417
34	0x3c18f4ce	0.00933571
35	0xbd351f80	-0.044219494
36	0xbc4b62aa	-0.01241366
37	0xbd0d7117	-0.03453168
38	0x3c9a973a	0.018870939
39	0x3caae636	0.020861726
40	0xbd33f89b	-0.04393826
41	0x3cc2e479	0.023790585
42	0x3b8c805f	0.004287764
43	0xbcc7204c	-0.024307393
44	0xbd4727ce	-0.048621945
45	0x3cf0980e	0.02936938
46	0xbce0555d	-0.027384454
47	0xbd20622e	-0.03915613
48	0xbd5eee21	-0.054426316
49	0xbd139742	-0.036032923
50	0xbd246593	-0.04013593
51	0x3d0b3f51	0.03399593
52	0x3cb8bc76	0.022550803
53	0xbd3c9947	-0.046044614
54	0x3d0c348c	0.0342298
55	0xbd46e454	-0.048557594
56	0x3d0fe536	0.035130702
57	0xbd49e93a	-0.049294688
58	0xbd086f28	-0.03330913
59	0xbc207adc	-0.009794917
60	0x3d025c52	0.031826325
61	0xbd3af8e7	-0.045647528
62	0xbd19fb6e	-0.037593298
63	0x3d128627	0.03577247
64	0x3b5b16e0	0.0033430383
65	0xbbe51370	-0.0069908425
66	0x3ced6bda	0.028982092
67	0xbd48fa77	-0.049066987
68	0xbd84d97b	-0.064867936
69	0x3cebb9c8	0.02877511
70	0x3bcdec69	0.006284286
71	0xbc8f919c	-0.017525487
72	0xbd495709	-0.04915527
73	0xbc81950b	-0.01581814
74	0x3b9e0fca	0.0048236595
75	0xbd60d011	-0.054885928
76	0xbd0e6b08	-0.03477004
77	0xbd12be9a	-0.035826303
78	0xbb4b5b45	-0.0031029743
79	0x3ca77724	0.020442553
80	0x3cc7a06e	0.024368491
81	0x3c99daa1	0.018781008
82	0xbd41d2c2	-0.047320135
83	0x3bce3c30	0.006293796
84	0xbd8425c2	-0.06452514
85	0xbccf43a6	-0.025300812
86	0xbce95c4c	-0.028486393
87	0xbcd9f7aa	-0.026607353
88	0xbce7be19	-0.028288888
89	0xbced10fe	-0.028938767
90	0x3d28388b	0.04106955
91	0x3d36120e	0.044450812
92	0x3cfc2a0d	0.03078177
93	0x3c99ec64	0.018789478
94	0x3d0b88b1	0.034065906
95	0x3ba77d0e	0.005111343
96	0xbd2180ee	-0.039429598
97	0x3bcc494e	0.0062343245
98	0x3c3baf20	0.011455327
99	0xbc386888	-0.011255391
100	0xbb827b58	-0.003981989
101	0x3c267cec	0.01016162
102	0xbd5e044f	-0.054203328
103	0xbb162cf8	-0.0022914987
104	0xbcc80e6e	-0.024420943
105	0xbc46e65c	-0.012139883
106	0x3cd3c41c	0.025850348
107	0xbd16af94	-0.036788538
108	0x3cb63a56	0.022244614
109	0xbd5eb20d	-0.05436902
110	0xbc079bfb	-0.008276935
111	0xbd079334	-0.03309937
112	0xbb83e449	-0.0040250164
113	0xbc5d0cd3	-0.013491827
114	0x3c47e1db	0.012199844
115	0x3ccdd836	0.025127511
116	0xbc13efe9	-0.009029367
117	0x3c845a38	0.0161563
118	0xbd016ffb	-0.031600934
119	0xbd37dd86	-0.044888996
120	0x3cff2400	0.031145096
121	0xbd870448	-0.065926135
122	0x3c9c0c97	0.019048972
123	0xbd1d0664	-0.038336173
124	0xbd78a055	-0.06069978
125	0xbd568359	-0.052371357
126	0xbd23bb50	-0.039973557
127	0x3cbf3d64	0.023344703
128	0x3d3763eb	0.044773024
129	0xbd38ad5b	-0.0450872
130	0x3cb0ef1f	0.021598397
131	0xbd667884	-0.056267276
132	0xbd4d4bd2	-0.050121136
133	0xbd6bc25f	-0.057558414
134	0xbd6c9e67	-0.05776825
135	0x3cdf64cf	0.027269749
136	0x3c81efd5	0.015861431
137	0xbd0e52ed	-0.034747053
138	0xbd72224c	-0.05911474
139	0x3c18282b	0.009286921
140	0x3ca2e7ed	0.019885981
141	0x3cd79e02	0.026320461
142	0x3cc999dd	0.0246095
143	0x3cc02cda	0.023458887
144	0x3ca98b4c	0.020696305
145	0x3c874636	0.016512971
146	0x3c549fb7	0.012977532
147	0x3c4a04c2	0.012330236
148	0x3d1bf9c5	0.038079996
149	0x3c710eba	0.014712984
150	0xbb9216a2	-0.0044582644
151	0xbba81425	-0.0051293545
152	0x3cc5d3d6	0.024148863
153	0xbc5a5458	-0.013325773
154	0x3b61663e	0.0034393216
155	0x3c00cd02	0.007861378
156	0xbc56e931	-0.013117121
157	0x3cbfbcf2	0.023405526
158	0xbd44ee1c	-0.04807864
159	0xbc85e241	-0.016343238
160	0xbbb9d850	-0.0056715384
161	0x3c828677	0.015933258
162	0x3b78217d	0.0037861757
163	0x3cd1670c	0.025561832
164	0xbcd58049	-0.026062148
165	0xbd736882	-0.05942584
166	0x3d06aa16	0.03287705
167	0xbc80b535	-0.015711406
168	0xbc69b20e	-0.014263643
169	0x3cf086c8	0.029361144
170	0xbd4b9650	-0.049703896
171	0x3c32f8b4	0.010923553
172	0xbce066d2	-0.027392779
173	0xbd191279	-0.037371133
174	0x3cf290e4	0.029610105
175	0x3c187107	0.009304292
176	0xbd22112b	-0.039567154
177	0xbd191f54	-0.037383392
178	0xbd162b8a	-0.036662616
179	0xbd2d0bee	-0.042247705
180	0xbd712480	-0.0588727
181	0xbc9d869f	-0.019229231
182	0x3c3bc446	0.011460369
183	0xbd852456	-0.06501071
184	0xbd46b847	-0.048515584
185	0xbd9e8a06	-0.0774117
186	0xbd13919c	-0.036027536
187	0xbd40abd6	-0.047038876
188	0xbc897f03	-0.016784197
189	0xbcbbb69a	-0.02291422
190	0x3d6d4211	0.057924334
191	0xbc25163a	-0.0100761
192	0x3c46ac9e	0.012126116
193	0xbd5cd688	-0.05391553
194	0x3d52ff0a	0.051512755
195	0x3b4983a5	0.0030748632
196	0xbd6a4202	-0.057191856
197	0xbbead30a	-0.007166271
198	0xbd231174	-0.039811566
199	0xbc98a8a5	-0.018635103
200	0x3d06c92d	0.0329067
201	0xbc19b1cd	-0.00938077
202	0x3ca1485b	0.019687822
203	0xbd51e1c6	-0.051240705
204	0xbc501262	-0.012699695
205	0x3d2c7fe3	0.04211415
206	0x3b916b82	0.0044378648
207	0xbc9a1245	-0.01880754
208	0x3bdd2256	0.006748478
209	0x3c920ed8	0.017829344
210	0xbd028492	-0.03186471
211	0x3d2ad516	0.04170712
212	0xb9f18851	-0.00046068666
213	0xbca98da5	-0.020697424
214	0xbd03f999	-0.032220457
215	0xbcd14204	-0.025544174
216	0xbb3511fd	-0.002762913
217	0x3d1ed7aa	0.038779892
218	0x3d184341	0.037173513
219	0x3ca0e4a1	0.019640269
220	0x3b31db39	0.0027138724
221	0x3ba69abe	0.0050843647
222	0xbd6ad8a6	-0.05733552
223	0xbc8640a9	-0.016388254
224	0x3b164cf2	0.0022934047
225	0xbd91d6d1	-0.07121051
226	0xbc5faeea	-0.013652543
227	0xbc8dfe0e	-0.017333057
228	0xbcbca78a	-0.023029108
229	0xbc5a8bc5	-0.013338988
230	0xbd874485	-0.06604866
231	0xbbfabff7	-0.0076522785
232	0x3d1dc7b3	0.038520526
233	0x3cea8cdb	0.028631618
234	0xbca166db	-0.019702366
235	0xbd2351a8	-0.039872795
236	0xbd4187ba	-0.04724858
237	0xbc4d85e3	-0.012544128
238	0xbccc8986	-0.02496792
239	0xbd1f909a	-0.038956262
240	0xbc873cfd	-0.016508574
241	0xbc4617eb	-0.012090663
242	0xbb8677b9	-0.0041036275
243	0xbd2fec90	-0.042950213
244	0xbcba0004	-0.022705086
245	0xbc7c2288	-0.015389092
246	0xbd167309	-0.0367308
247	0xbd09c3d2	-0.033634014
248	0xbc9b898d	-0.018986488
249	0xbc56c2b2	-0.013107942
250	0xbcf64514	-0.030062236
251	0x3c328d00	0.010897875
252	0x3c186ea0	0.009303719
253	0x3d026efd	0.031844128
254	0xbd4efd4d	-0.050534535
255	0xbd068897	-0.032845106

bias f4 [120]
0	0x3cd8d647	0.026469363
1	0xbd4e8c60	-0.05042684
2	0xbca38d6f	-0.019964902
3	0xbd3df470	-0.046375692
4	0x3cabf7f5	0.020992259
5	0x3d9d4afc	0.07680318
6	0xbcf18bb8	-0.029485568
7	0xbd68a330	-0.056796253
8	0xbd604b8c	-0.054759547
9	0x3b7586b7	0.003746433
10	0xbd3627f7	-0.044471707
11	0x3c9afc40	0.01891911
12	0x3d0f2d26	0.034955166
13	0xbd4aee72	-0.049543805
14	0x3d16101f	0.036636468
15	0xbd1ec5bb	-0.03876279
16	0xbd5edf60	-0.054412246
17	0xbd0d4087	-0.034485366
18	0x3c0bf1a2	0.0085414965
19	0x3d8a3a49	0.06749398
20	0xbc25d201	-0.01012087
21	0xbc411992	-0.011785882
22	0xbd7aa70d	-0.06119447
23	0x3c019642	0.007909359
24	0x3b462bdb	0.0030238542
25	0xbca69b8e	-0.020337846
26	0x3c25db9b	0.010123159
27	0xbd1f17ad	-0.03884094
28	0x3c315b1b	0.010824944
29	0xbd3f63d8	-0.046726078
30	0xbd2bbb84	-0.041926876
31	0xbcc96a59	-0.024586843
32	0xbd37a534	-0.044835284
33	0xbd47e071	-0.04879803
34	0xbd30a0b5	-0.043122012
35	0x3d037f49	0.03210381
36	0x3c8922a1	0.016740145
37	0xbca12ee9	-0.019675689
38	0x3cd73cd9	0.026274132
39	0x3d1ab8d9	0.03777394
40	0xbd72a60d	-0.05924039
41	0x3d9a4d4b	0.07534274
42	0x3c669971	0.014074669
43	0x3c8860aa	0.016647656
44	0x3c607e24	0.013701949
45	0x3d0c8f1c	0.034316167
46	0x3cdadb18	0.0267158
47	0xbd0a7c7a	-0.033810116
48	0xbdb0962a	-0.086223915
49	0xbd14c068	-0.036316305
50	0xbbd7656d	-0.00657337
51	0xbd78770b	-0.060660403
52	0xbb6ea218	-0.0036412533
53	0x3c71f1c3	0.014767113
54	0x3c0a9798	0.008458994
55	0x3d84b6b6	0.06480162
56	0xbd1cd777	-0.03829142
57	0x3d8349ea	0.06410582
58	0xbd63415a	-0.055482246
59	0x3c7e160f	0.015508189
60	0xbcdc1d5b	-0.026869467
61	0xbc10f85c	-0.008848276
62	0x3d762e77	0.060102906
63	0x3be6a0c5	0.007038208
64	0x3d254700	0.040350914
65	0xbbd7fbb3	-0.006591284
66	0x3da806a7	0.08204394
67	0xbcc1fb45	-0.023679385
68	0x3cb8f4e1	0.022577705
69	0xbd93e80d	-0.072219945
70	0xbc74ec9b	-0.014948989
71	0x3d9620b1	0.07330454
72	0xbd109689	-0.03529981
73	0x3cf4e48d	0.029894138
74	0x3d9f92c8	0.07791668
75	0x3b6a12fe	0.0035716887
76	0x3d050676	0.032476865
77	0x3cf2089e	0.029545125
78	0xbd69169f	-0.05690634
79	0xbcd26771	-0.02568409
80	0x3c7aeb62	0.015314909
81	0x3c92e495	0.017931262
82	0xbd2d77aa	-0.04235045
83	0xbd367b26	-0.044551037
84	0x3d8e3950	0.06944525
85	0xbd6ff2eb	-0.058581274
86	0x3c825fe5	0.015914867
87	0xbbc699c8	-0.0060608126
88	0x3cc423ab	0.023942789
89	0x3c7eb19b	0.015545274
90	0x3bfcd3ef	0.007715694
91	0x3cde2e1a	0.027121592
92	0xbd85ad20	-0.065271616
93	0x3d61675a	0.055030204
94	0xbc896c28	-0.016775206
95	0xbc5da627	-0.013528383
96	0xbd3a77a2	-0.045524247
97	0x3d1d138b	0.038348716
98	0x3d81aae1	0.06331421
99	0x3caaee1c	0.020865493
100	0xbd81718c	-0.063204855
101	0xbd4a82df	-0.049441215
102	0x3c93659e	0.01799279
103	0xbd824551	-0.06360877
104	0xbc6c06a8	-0.014405884
105	0xbc45575f	-0.012044757
106	0xbce2e884	-0.027698763
107	0x3b7a359c	0.0038178926
108	0xbd2ca367	-0.04214802
109	0xbce10e80	-0.027472734
110	0xbb973cca	-0.004615401
111	0xb9c32434	-0.00037220272
112	0xbd067dd9	-0.03283486
113	0x3d184b66	0.03718128
114	0x3c32a884	0.010904435
115	0x3cf9b0df	0.030479847
116	0xbb805d11	-0.0039173444
117	0xbd1497e5	-0.03627767
118	0xbd077d37	-0.0330784
119	0x3cebcc76	0.028784018

weight f4 [84, 120]
0	0xbd7a5977	-0.061120477
1	0xbdc915ef	-0.098186366
2	0x3b4bcb23	0.003109642
3	0x3e05c0cb	0.13061826
4	0xbdb2d63c	-0.08732268
5	0xbd54bd67	-0.05193844
6	0x3d02aa21	0.03190053
7	0x3da9e0cd	0.082948305
8	0x3d1c3083	0.038132202
9	0x3b7e5977	0.003881065
10	0xbcf1ab98	-0.029500768
11	0x3bd508e1	0.0065013026
12	0x3c432cf9	0.011912578
13	0x3d381e5b	0.044950824
14	0x3ccb97d1	0.024852665
15	0x3c926c79	0.01787399
16	0x3cad4866	0.021152686
17	0x3933c254	0.00017143163
18	0xb9d6df43	-0.00040983604
19	0x3cae344c	0.021265171
20	0x3d71505d	0.05891453
21	0x3c5d38fe	0.0135023575
22	0x3d30f6a0	0.04320395
23	0x3d916151	0.0709864
24	0xbd29913d	-0.041398276
25	0xbd4e2ba6	-0.050334595
26	0x3dfa3f75	0.12219135
27	0xbd616d4a	-0.055035867
28	0x3d8d8da8	0.069117844
29	0xbc95560b	-0.018229505
30	0xbd490c67	-0.049084093
31	0xbdc2dff2	-0.095153704
32	0x3dac019d	0.08398745
33	0xbd4dcb09	-0.050242458
34	0xbd8ab453	-0.06772675
35	0x3e21095f	0.15726231
36	0x3ccc903a	0.024971116
37	0x3d1210ae	0.03566044
38	0x3c2c4634	0.010514785
39	0xbe53ee3b	-0.20696346
40	0x3dc87aa2	0.09789015
41	0x3d852144	0.065004855
42	0x3e574dcf	0.21025775
43	0xbc864a51	-0.016392859
44	0x3c1febf2	0.009760844
45	0x3d8a233f	0.06745004
46	0xbdeaf83c	-0.11473128
47	0xbcc5606c	-0.02409383
48	0xbd3db514	-0.046315268
49	0xbc6e9103	-0.014560941
50	0xbdbc5628	-0.091961205
51	0xbd3e8d9e	-0.046521775
52	0xbd0c3805	-0.034233112
53	0xbdb0a4ab	-0.08625158
54	0xbd1b0a6e	-0.037851743
55	0x3de44358	0.11145657
56	0xbd8acd86	-0.06777482
57	0x3d5643d7	0.05231079
58	0x3d68e3a2	0.056857713
59	0xbd98ebac	-0.07466826
60	0x3d8aec6b	0.067833744
61	0x3ded4006	0.11584477
62	0x3cd461a7	0.02592547
63	0xbd81e5b9	-0.06342644
64	0x3ce75b19	0.028241681
65	0x3dd4ead6	0.10396354
66	0x3c545d84	0.012961749
67	0x3d5444ba	0.051823355
68	0x3d84142f	0.06449162
69	0x3e08a2d7	0.13343368
70	0x3df9732e	0.12180172
71	0x3dba1119	0.09085292
72	0x3c5dbb97	0.013533494
73	0xbd089b6f	-0.033351358
74	0x3d77d965	0.060510058
75	0x3da3254f	0.079661004
76	0xbd7d6b45	-0.06186988
77	0x3e0d0590	0.13771653
78	0xbd4fe6f0	-0.05075735
79	0xbc8b5a90	-0.017010957
80	0xbb508468	-0.0031817202
81	0x3c934c07	0.017980589
82	0x3d9673f1	0.07346333
83	0xbcad15fd	-0.021128649
84	0xbd9d4d30	-0.07680738
85	0x3d329700	0.043601036
86	0x3e353362	0.17695382
87	0x3c72a267	0.014809228
88	0x3ce93b45	0.028470645
89	0x3dc89991	0.097949155
90	0x3d4c4c0a	0.049877204
91	0xbc914ccf	-0.01773682
92	0x3d0b478f	0.03400379
93	0xbc70d570	-0.014699325
94	0xbcb7b3ca	-0.022424597
95	0xbcdf6974	-0.027271964
96	0x3ba4ae3e	0.005025654
97	0x3c8fa004	0.017532356
98	0x3d5e7fc4	0.054321066
99	0x3dbd96c4	0.09257272
100	0xbcbb5e48	-0.022872105
101	0xbbabb4f8	-0.005240079
102	0xbd8a7879	-0.067612596
103	0x3e49b0c3	0.19696335
104	0xbe372c90	-0.17888093
105	0x3ca7ebc3	0.020498162
106	0xbbf072e4	-0.007337915
107	0xbcd77b2d	-0.026303852
108	0x3dc7b39b	0.09751054
109	0xbd02857b	-0.03186558
110	0x3d6ffca4	0.058590546
111	0xbb011b7e	-0.0019700225
112	0xbbfda3e1	-0.007740483
113	0xbdb7ac5d	-0.089684226
114	0x3db302ba	0.087407544
115	0x3e2cd767	0.16879044
116	0xbd0c8699	-0.03430805
117	0xbd0a1826	-0.033714436
118	0xbd92b9b1	-0.07164324
119	0x3d0bc471	0.034122888
120	0xbca5a725	-0.020221302
121	0xbc529e53	-0.01285513
122	0xbcd7483d	-0.026279563
123	0x3e370919	0.17874564
124	0x3dc2290c	0.09480485
125	0x3cd2819d	0.02569657
126	0x3d2967f0	0.04135889
127	0x3d61a151	0.055085484
128	0x3d8fd7db	0.07023593
129	0x3a632053	0.00086641795
130	0x3ca569dd	0.020192081
131	0x3d52dee5	0.0514821
132	0xbd094b04	-0.033518806
133	0xbd9f9560	-0.07792163
134	0xbcd74130	-0.026276201
135	0x3db207ba	0.0869288
136	0xbd7b8b85	-0.061412353
137	0x3d968c39	0.07350964
138	0xbdd050ec	-0.101716846
139	0xbbb8e5f5	-0.0056426474
140	0x3d56071d	0.052252878
141	0x3c0f0c02	0.00873089
142	0x3db0e417	0.08637255
143	0x3de6a973	0.112627886
144	0xbc9e1e81	-0.019301655
145	0x3dd2379c	0.10264513
146	0xbd4100df	-0.04711997
147	0xbd359bda	-0.044338085
148	0x3e020729	0.12698044
149	0xbd9dbb01	-0.07701684
150	0x3e131e67	0.14367066
151	0x3d58ffbc	0.052978262
152	0xbd866aaf	-0.06563317
153	0x3cc17feb	0.023620566
154	0x3d56b2c4	0.052416578
155	0x3cd0a3d1	0.025468739
156	0x3d0198a6	0.031639718
157	0x3ca4de24	0.020125456
158	0xbdb429a4	-0.08797005
159	0xbdda0a8d	-0.10646544
160	0x3e17211e	0.14758727
161	0xbd726e14	-0.05918701
162	0x3de654d6	0.1124665
163	0x3d370906	0.04468634
164	0x3cacc3fd	0.021089548
165	0xbce26e3c	-0.027640454
166	0x3cd3c339	0.025849925
167	0xbdbd3e41	-0.092403896
168	0x3dc74679	0.097302385
169	0xbd5bb2b9	-0.05363724
170	0xbd07236f	-0.032992776
171	0x3c642048	0.013923712
172	0xbd98abfb	-0.07454678
173	0x3dbde443	0.09272053
174	0x3e05fea9	0.13085426
175	0x3d888c01	0.066673286
176	0xbd113a42	-0.03545595
177	0xbd520215	-0.051271517
178	0x3c2a077e	0.010377763
179	0xbd35f1c6	-0.044420026
180	0x3da5c1c4	0.080935985
181	0x3e0a2371	0.13490082
182	0x3d8a57b0	0.06755006
183	0xbe05ce98	-0.1306709
184	0xbd375e68	-0.044767767
185	0x3d63e23d	0.05563568
186	0xbddabec4	-0.10680917
187	0x3d4c164a	0.049825944
188	0x3ca4a7cc	0.020099543
189	0x3c122b3a	0.008921439
190	0xbd2a9408	-0.04164508
191	0xbb8e6571	-0.004345589
192	0x3c83d03e	0.016090509
193	0xbcbcf9d4	-0.023068346
194	0xbc952a9d	-0.018208796
195	0x3ddf2eff	0.10897636
196	0x3d6134b0	0.054981887
197	0x3e0453f5	0.12922652
198	0x3d456614	0.048193052
199	0xbe1898cd	-0.14902039
200	0x3d22b9fb	0.039728146
201	0x3d1aabf4	0.037761644
202	0xbdc5cccd	-0.09658203
203	0xbc98d105	-0.018654356
204	0xbcb3f9d3	-0.021969711
205	0xbc7c5df9	-0.015403264
206	0x3d0f456b	0.03497831
207	0x3c84697e	0.016163584
208	0xbdb8f226	-0.09030561
209	0x3bfe7fb7	0.0077666896
210	0xbd578da7	-0.052625325
211	0xbd967515	-0.073465504
212	0xbd333608	-0.0437527
213	0x3d81a8b3	0.06331005
214	0xbcd4c582	-0.025973085
215	0x3dbaa35b	0.09113189
216	0xbd70d874	-0.058800176
217	0xbc56d664	-0.013112638
218	0xbd278633	-0.040899467
219	0x3dde2328	0.10846549
220	0x3d997339	0.0749268
221	0x3ddd4f7d	0.10806177
222	0xbd3857fa	-0.045005776
223	0x3e5ffef2	0.21874598
224	0x3dbabd6e	0.09118162
225	0x3d184530	0.037175357
226	0xbd561bcc	-0.052272603
227	0x3de9acb5	0.114098944
228	0x3e664167	0.22485887
229	0x3dc946cc	0.098279566
230	0xbca91f4e	-0.02064481
231	0xbcd7d132	-0.02634487
232	0xbd4f2f55	-0.05058225
233	0x3c48140e	0.012211813
234	0x3e399a13	0.18125181
235	0x3e21a5a1	0.15785839
236	0xbcc201ac	-0.023682438
237	0xbcce31c1	-0.025170209
238	0xbd13a16a	-0.03604261
239	0xbd1fd78d	-0.039023925
240	0xbd3624cf	-0.044468697
241	0xbd06deaf	-0.03292721
242	0xbcfcf97c	-0.030880682
243	0xbdaf4a10	-0.08559048
244	0x3d501e24	0.050809994
245	0x3d2337d6	0.03984817
246	0xbd7854bb	-0.06062768
247	0xbd43ffa1	-0.04785121
248	0x3d99a87c	0.07502839
249	0xbd80e76f	-0.062941425
250	0xbc051c28	-0.008124389
251	0xbca8679c	-0.020557217
252	0xbd15116f	-0.03639358
253	0xbd6aa014	-0.05728157
254	0xbd972bb0	-0.073813796
255	0xbd56ca8a	-0.05243925

bias f4 [84]
0	0x3d89d6db	0.067304336
1	0xbd4f86bb	-0.0506656
2	0xbbfed503	-0.007776858
3	0xbd95bc09	-0.073112555
4	0x3d0db869	0.034599695
5	0xbdb8453f	-0.08997583
6	0xbd74c160	-0.05975473
7	0x3cbcecfe	0.023062225
8	0x3cb101a9	0.021607237
9	0x3e0e5dc7	0.1390296
10	0x3dd43fb8	0.10363716
11	0xbd86d367	-0.065832905
12	0x3dc750ce	0.09732209
13	0x3dccb0ac	0.09994635
14	0xbc91b954	-0.017788567
15	0xbdb1f4ab	-0.08689245
16	0xbcfef3ad	-0.031122053
17	0x3d8085c2	0.06275512
18	0x3d55772d	0.052115608
19	0x3d0ae595	0.033910353
20	0xbdb8bde3	-0.09020593
21	0x3deb7618	0.11497134
22	0xbd02d901	-0.031945232
23	0x3d4212d8	0.047381252
24	0x3d9c542e	0.076332435
25	0xbd5b0de9	-0.053480063
26	0xbb329112	-0.0027247113
27	0xbc1c61bb	-0.009544785
28	0x3dddd5e1	0.1083181
29	0x3e0a3c94	0.13499671
30	0x3d65496c	0.055978224
31	0x3d365a22	0.04451955
32	0x3cb93de2	0.022612516
33	0x3da9471b	0.082655154
34	0x3c531e9b	0.012885715
35	0xbd2b7074	-0.04185529
36	0x3dd2476e	0.102675304
37	0x3da09f74	0.07842913
38	0xbbdfd803	-0.0068311705
39	0x3db856fb	0.09000965
40	0xbca952c1	-0.020669343
41	0xbc86c852	-0.016452942
42	0x3d01dda8	0.03170553
43	0xbd73bf12	-0.05950839
44	0x3dcc8e78	0.09988111
45	0x3d8afe87	0.067868285
46	0xbc54c4d7	-0.012986383
47	0xbd06016c	-0.0327162
48	0xbcd034fb	-0.025415888
49	0xbd2dc2d3	-0.042422127
50	0x3cae5229	0.021279411
51	0xbd663e14	-0.056211546
52	0xbe028cd9	-0.12749042
53	0x3d2a1961	0.04152811
54	0x3d4bd3da	0.049762584
55	0xbcc335a2	-0.023829285
56	0xbdeb3679	-0.11484999
57	0x3e19a8df	0.15005825
58	0x3dd85be7	0.10564404
59	0x3dd76e14	0.105190426
60	0xbdc008f4	-0.09376708
61	0x3dd4c3c3	0.10388901
62	0x3ddf1433	0.108925246
63	0xbd9bfec0	-0.07616949
64	0xbb22d96d	-0.0024848834
65	0x3da07026	0.078338906
66	0xbd974421	-0.073860414
67	0xbd2af707	-0.04173949
68	0x3d234323	0.03985895
69	0x3db2d333	0.08731689
70	0x3dadd610	0.08488095
71	0x3c06a281	0.008217455
72	0x3e1c5b3c	0.15269178
73	0xbba595e8	-0.0050532706
74	0x3db8feb1	0.090329535
75	0x3d164e36	0.03669568
76	0x3cb6c4d5	0.022310654
77	0x3df6edb8	0.1205706
78	0xbce841a0	-0.028351605
79	0x3ddcd99b	0.107836924
80	0xbdc7fcc9	-0.09765012
81	0xbdbb3bf0	-0.091422915
82	0xbddcd055	-0.10781924
83	0xbdbe6a2f	-0.09297597

weight f4 [10, 84]
0	0x3ce31656	0.027720612
1	0x3de36a59	0.111042686
2	0xbcfce92f	-0.03087291
3	0xbc5ad2eb	-0.013355951
4	0xbe31dc5f	-0.17369221
5	0xbafca8d1	-0.0019276385
6	0xbd499205	-0.04921152
7	0xbd739005	-0.05946352
8	0xbc3fcd40	-0.01170665
9	0x3c2f1abc	0.010687526
10	0xbe146dd8	-0.14495027
11	0x3d218b95	0.039439756
12	0x3d99a46d	0.07502065
13	0xbdf44910	-0.11927998
14	0x3cf01269	0.029305654
15	0xbbb46c33	-0.0055060624
16	0xbd8f491b	-0.06996366
17	0xbcfcd895	-0.030864993
18	0x3dc70c8a	0.097191885
19	0x3e288d05	0.16460045
20	0x3d65645f	0.056003924
21	0xbdf85262	-0.12125088
22	0xbdc058df	-0.09391951
23	0xbc4d83ca	-0.012543628
24	0x3e73b50c	0.23799533
25	0xbda0d1c5	-0.0785251
26	0xbc5cdba6	-0.013480103
27	0xbd68c7ff	-0.056831356
28	0xbe39125c	-0.1807341
29	0xbd999aee	-0.075002536
30	0xbe18cdf3	-0.14922313
31	0xbe7015c2	-0.234458
32	0x3d8e9579	0.069621034
33	0x3d59bcd8	0.05315861
34	0x3d3604e0	0.044438243
35	0x3da203d0	0.079108834
36	0x3dcda3aa	0.10040982
37	0x3c7b98ab	0.015356223
38	0xbe52e76c	-0.20596093
39	0xbe28e608	-0.16494
40	0x3c215069	0.009845831
41	0x3de91e9e	0.11382793
42	0xbe4d93d7	-0.20075928
43	0x3e3dd14c	0.18536872
44	0x3d9d429c	0.0767872
45	0x3c92dfe3	0.017929023
46	0xbc904163	-0.017609304
47	0x3b45a879	0.0030160232
48	0xbda9e2eb	-0.08295234
49	0xbd3bb00a	-0.04582218
50	0x3c995c29	0.018720703
51	0xbdce0d5d	-0.100611426
52	0x3d8df465	0.0693138
53	0x3dbbbf79	0.0916738
54	0xbe0c83e7	-0.13722192
55	0xbd67053c	-0.056401476
56	0x3bce909e	0.006303861
57	0x3e09dee1	0.13463928
58	0xbe58ac67	-0.21159516
59	0x3dcea2df	0.10089659
60	0xbcfac469	-0.030611234
61	0x3d65282e	0.05594652
62	0x3c657479	0.01400482
63	0xbda5e4df	-0.08100294
64	0xbd38a279	-0.04507682
65	0x3d8b76ae	0.06809746
66	0xbd2a641e	-0.041599385
67	0xbe8d7ddc	-0.27635086
68	0x3b9b70d8	0.0047436766
69	0xbe313cfe	-0.17308423
70	0x3d11c014	0.03558357
71	0x3c135625	0.008992706
72	0x3dbdadf7	0.09261697
73	0x3dc84511	0.09778798
74	0xbe40b5ad	-0.18819304
75	0x3e128091	0.14306857
76	0xbe1e0c15	-0.15434296
77	0x3e02fd42	0.12791923
78	0xbe011220	-0.1260457
79	0xbe0995ec	-0.13436097
80	0xbba36d15	-0.004987369
81	0xbc9fb1d6	-0.019493978
82	0xbcbbcfa5	-0.022926161
83	0x3d691032	0.05690021
84	0xbdc52d23	-0.0962775
85	0x3cc67725	0.024226734
86	0x3dae0624	0.08497265
87	0x3d9656f8	0.07340807
88	0x3c873a9a	0.016507436
89	0xbdc1a899	-0.094559856
90	0x3ccb48af	0.024814932
91	0xbdc2ddc6	-0.09514956
92	0xbcf9735f	-0.030450521
93	0xbe713986	-0.235571
94	0xbe3dd9ba	-0.18540087
95	0x3da829c1	0.08211089
96	0xbd80521b	-0.062656604
97	0x3dfa563f	0.122234814
98	0xbd4ca402	-0.049961098
99	0xbe706a62	-0.23478082
100	0xbe4291fd	-0.19001003
101	0xbdb05447	-0.08609825
102	0x3de6fc2d	0.112785675
103	0x3c978e58	0.018500492
104	0x3d7b4385	0.06134369
105	0xbe6647b5	-0.22488292
106	0x3d869be1	0.065727
107	0xbe1974b1	-0.1498592
108	0x3e110989	0.14163794
109	0x3d98f9bb	0.07469507
110	0x3c5ff2ea	0.013668755
111	0x3cdc2bb4	0.026876308
112	0x3dc4b35e	0.09604524
113	0xbc8aa216	-0.016922992
114	0x3db40b83	0.08791258
115	0xbe124d28	-0.14287245
116	0xbcbf78a5	-0.023372957
117	0x3deaa58f	0.11457359
118	0xbd41cfc9	-0.0473173
119	0xbda6d626	-0.08146314
120	0x3e4ee040	0.20202732
121	0xbd69a015	-0.05703743
122	0xbea0dc50	-0.31418085
123	0x3e03a35b	0.12855284
124	0xbe08739f	-0.13325356
125	0xbe365dcd	-0.1780922
126	0x3e10b9d4	0.14133388
127	0xbcfb3853	-0.030666506
128	0xbe2c10b7	-0.16803251
129	0xbc531004	-0.012882236
130	0xbd255ecc	-0.04037361
131	0x3d60ebe7	0.054912474
132	0x3c86fe10	0.016478568
133	0xbe7f6f16	-0.2494472
134	0x3db42a2f	0.087971084
135	0x3d4b85a0	0.04968798
136	0xbda32dea	-0.07967742
137	0xbe3e790d	-0.18600865
138	0xbd0b79fd	-0.034051884
139	0xbe25d440	-0.16194248
140	0xbd86f6df	-0.06590056
141	0x3e12fd12	0.14354351
142	0x3dacf9ff	0.084461205
143	0xbe1b5c53	-0.15171938
144	0x3c20b451	0.009808616
145	0x3e23f7fa	0.16012564
146	0x3e0fba39	0.14035882
147	0x3d8d4f62	0.06899907
148	0xbd9b5c95	-0.07586018
149	0xbdb3e741	-0.087843426
150	0xbd3448da	-0.04401479
151	0x3defb056	0.11703555
152	0xbe49cf7d	-0.19708057
153	0x3cf65008	0.030067459
154	0xbe59b2f5	-0.21259673
155	0xbe5c0408	-0.21485913
156	0xbd616273	-0.05502553
157	0xbc7c7195	-0.015407939
158	0x3de1a729	0.110182114
159	0xbd3156ef	-0.043295797
160	0xbd845bde	-0.06462835
161	0x3d78f61a	0.060781576
162	0xbe322073	-0.17395191
163	0x3e391bb1	0.1807697
164	0xbd615d49	-0.055020604
165	0x3d97c608	0.07410818
166	0xbd70cf4a	-0.058791436
167	0x3c95a8e6	0.018269014
168	0x3dfc73d8	0.12326783
169	0x3ddc6f52	0.1076342
170	0x3bbb665a	0.0057189884
171	0xbdae84dd	-0.085214354
172	0xbe5129a8	-0.20426047
173	0xbda877e3	-0.082259916
174	0xbd27155a	-0.040791847
175	0x3d28ad41	0.041180853
176	0x3d8f6d66	0.07003288
177	0xbd5ab07f	-0.053390976
178	0x3dc6f26c	0.09714207
179	0x3da1214f	0.07867681
180	0xbd893edb	-0.06701442
181	0x3bb0de3d	0.0053975866
182	0x3cf251ba	0.029579986
183	0xbd2ae1c1	-0.041719202
184	0xbe719f7f	-0.23595999
185	0xbe049151	-0.12946059
186	0x3d541284	0.05177547
187	0x3e0f9a03	0.14023595
188	0xbc93ebcd	-0.018056775
189	0x3ddbed95	0.107386746
190	0xbd0c68ef	-0.03427976
191	0xbe16b661	-0.1471801
192	0xbe513be8	-0.20433009
193	0xbcea768a	-0.028620977
194	0xbd8a2325	-0.067449845
195	0xbc9b299e	-0.018940743
196	0x3dc07793	0.09397807
197	0x3d34fcf7	0.04418656
198	0xbe76d2cc	-0.2410385
199	0x3e17b731	0.14815976
200	0x3d983a1d	0.07432959
201	0x3db5ed17	0.08883112
202	0x3d9e69af	0.07735001
203	0xbd8cf49b	-0.06882592
204	0xbcb339b1	-0.021878095
205	0x3bdd9c14	0.0067629907
206	0xbe709ff2	-0.23498514
207	0x3cd7738d	0.026300216
208	0x3e0d3303	0.1378899
209	0x3e011865	0.12606962
210	0x3deb96a6	0.11503343
211	0x3da2b1d2	0.07944073
212	0xbe10c831	-0.14138867
213	0xbd81e487	-0.06342416
214	0x3d2b6e63	0.04185332
215	0x3dbaa0bc	0.09112689
216	0x3bca6919	0.0061770794
217	0xbd1c0419	-0.038089845
218	0xbb7af359	-0.003829202
219	0xbcfd7074	-0.03093741
220	0xbd7541b3	-0.05987711
221	0xbe1dfbe7	-0.15428124
222	0x3cb70ab8	0.022343978
223	0x3e2135dd	0.15743203
224	0xbdb07a23	-0.08617046
225	0xbe740484	-0.23829848
226	0xbe428f03	-0.18999867
227	0x3ceb227d	0.028702969
228	0xbde32c4a	-0.11092432
229	0x3dbf2338	0.09332889
230	0x3e0341d9	0.12818088
231	0xbdd94f44	-0.10610822
232	0xbc9ebc85	-0.019377002
233	0xbd572ce8	-0.05253306
234	0x3d743b47	0.059626844
235	0xbe875a60	-0.26436138
236	0x3dc82668	0.097729504
237	0xbd696297	-0.05697879
238	0x3e8e9853	0.2785059
239	0xbddacf2b	-0.106840454
240	0x3cf3f99d	0.02978211
241	0xbe26ed04	-0.16301352
242	0xbe34c66c	-0.17653817
243	0x3d910ca9	0.07082493
244	0x3dd3a851	0.10334838
245	0x3d8371cb	0.06418189
246	0xbe0d7279	-0.13813199
247	0xbc630089	-0.013855108
248	0xbdd42464	-0.103585035
249	0xbcbc2277	-0.022965653
250	0x3d3cc594	0.046086863
251	0xbd701d0f	-0.058621462
252	0x3dee248c	0.116280645
253	0x3da4129a	0.080113605
254	0xbd102dd2	-0.035199948
255	0xbdb2a634	-0.08723107

bias f4 [10]
0	0xbdaa7e6b	-0.083248936
1	0x3dc9cb70	0.09853256
2	0xbdd5c9f2	-0.10438909
3	0x3d8ab8a2	0.06773497
4	0x3d36aced	0.04459851
5	0x3d82d50b	0.06388291
6	0xbd19690b	-0.037453692
7	0x3d5b4b53	0.05353863
8	0x3d81a7be	0.063308224
9	0xbd3288d5	-0.043587524
